sdk/model.pth (torch, 4303 bytes, 4 tensors)

fc1.weight f4 [32, 10]
000000 e3 cd 7a 3e 85 12 a3 3e ac a0 27 3e 6c e9 7d be
       0.24492602 0.31850067 0.16369885 -0.24796075
000010 58 61 84 be d9 fb dd 3d 51 36 56 be 57 28 97 be
       -0.25855517 0.10839052 -0.20919158 -0.29522964
000020 f8 a8 a1 3d 26 f7 b0 bd 6b ec f6 bd 16 27 84 be
       0.07893556 -0.0864089 -0.12056812 -0.2581107
000030 5c 84 4f 3d da c3 08 be 40 5b 36 bd 47 aa 72 3e
       0.050663337 -0.13355961 -0.044520617 0.23697768
000040 30 4e f6 bd b5 7d 2e 3e ae 37 e7 3d 93 f2 d1 bd
       -0.12026632 0.17040141 0.11289917 -0.102513455
000050 e7 b7 8e be 4a b4 01 be 63 65 5c 3e c8 47 68 3d
       -0.2787468 -0.12666431 0.21523051 0.05670908
000060 fb a2 8f 3e 90 4b 3d 3c c3 ad 5d be 64 18 88 be
       0.28054032 0.01155366 -0.21648316 -0.2658111
000070 ec 00 84 3e 54 84 fb bd 41 2a 1e 3e a2 5f 82 be
       0.25781953 -0.12281099 0.15445806 -0.25463587
000080 73 5f 83 bd 1e 90 47 3d 67 8e 31 be cd f1 ef bd
       -0.0641469 0.048721425 -0.17339478 -0.11716042
000090 cc 76 36 bb b9 7f e7 bd aa a5 33 bd 84 19 84 3e
       -0.0027841805 -0.11303658 -0.04385916 0.25800717
0000a0 14 f4 a6 3c 67 b8 14 be 3c cf 88 3e 04 0a 90 bd
       0.020380057 -0.14523469 0.26720607 -0.0703316
0000b0 0a c6 07 3d df b2 26 be 6c 70 5a be 49 1d 25 3e
       0.03314785 -0.16279171 -0.21331948 0.16124453
0000c0 0f af 25 be 33 09 8e 3e 9c e6 61 be 19 93 e6 bd
       -0.16180061 0.27741393 -0.22060627 -0.112585254
0000d0 86 80 9e be 00 0c 36 be ee 12 95 be 1a f5 12 3e
       -0.3095743 -0.17778015 -0.29116005 0.14351311
0000e0 57 59 32 3d 11 bd 95 be 61 45 3d be c3 83 89 be
       0.043542232 -0.2924581 -0.18483497 -0.2685834
0000f0 15 f0 27 be eb f8 dd 3d 85 86 6c 3e b3 e7 db 3d
       -0.16400178 0.10838493 0.2309819 0.107375525
000100 2a 7b ee 3d ae 5a af 3d 50 10 cd 3d 7c 1f cf bd
       0.116445854 0.08562218 0.10012877 -0.10113427
000110 81 fa 0d be ae 73 86 3e dd c1 d5 bd 59 2b 04 bd
       -0.13865091 0.26260132 -0.10437367 -0.032267902
000120 5a d1 15 be 2c 9b 84 3e 8e 3c a6 3e 4a 4f e0 bd
       -0.14630643 0.25899637 0.32468075 -0.10952623
000130 51 f4 9d be 3b 7e 65 be 2c 22 a2 be 02 50 b0 bc
       -0.3085046 -0.22411434 -0.31666696 -0.021522526
000140 5c 22 0a 3e c0 6a 97 3e 4f 1d 8f be 8d 1a f8 bd
       0.1348967 0.2957363 -0.27952048 -0.12114439
000150 ff 21 72 be fc f5 3a 3c a4 5b 74 be 64 b4 fa bd
       -0.23645781 0.011411186 -0.23863083 -0.12241438
000160 9d f8 16 3e f5 9b 9d 3e d0 2b a7 3d a5 72 bf bd
       0.14743276 0.30783048 0.081626534 -0.093480386
000170 53 74 66 3e 23 3f b6 bd 46 64 8c bd 16 ca bc bd
       0.22505312 -0.08898761 -0.06855063 -0.09218232
000180 79 c6 29 be 64 2d 36 bd ec 8a dd 3d 88 81 19 3e
       -0.16579618 -0.04447688 0.10817513 0.14990819
000190 9f b7 e9 3d 3e 42 72 bd 6c ea 3f be 64 ad 48 be
       0.11411976 -0.059145205 -0.18741769 -0.19597393
0001a0 16 8c 83 be d0 17 ee 38 75 ae 57 3e 4e a7 49 3e
       -0.25692815 0.0001135316 0.21062644 0.19692728
0001b0 f7 4c 09 be ec 52 40 be c1 9e a7 3e 9c 16 92 3d
       -0.13408266 -0.18781632 0.32738307 0.07133219
0001c0 d8 2e 41 be 2a c4 7c be 33 ef 35 be 63 e3 04 be
       -0.18865526 -0.24684206 -0.17767029 -0.12977366
0001d0 36 7b 58 3e 78 6e 8a 3e 6a ef f1 3d df ba 4d be
       0.21140751 0.27037406 0.11813243 -0.20090817
0001e0 52 f0 92 be 1d ac 8a be d4 ac f0 bd 4d 9f 9a 3d
       -0.28698975 -0.27084437 -0.11751714 0.075499155
0001f0 eb 7e 60 3e e3 87 f8 bc 49 17 1d be 74 fb 3b bd
       0.21923415 -0.030338233 -0.15340914 -0.0458941
000200 78 eb 71 3e e9 30 39 be d4 8b 75 3d c0 2e 36 3e
       0.2362498 -0.18085064 0.059947804 0.17791271
000210 44 01 37 bd 9f b7 72 bd 7f e7 17 3e 60 ec d3 3d
       -0.04467894 -0.059257146 0.14834403 0.10347819
000220 15 cc c8 bd 25 3b ba 3c 6e a2 d2 b9 6b 07 b8 bd
       -0.098045506 0.02273328 -0.0004017534 -0.0898579
000230 54 63 5d 3e ea a4 ab 3c 9e 65 46 bc 14 06 f1 bd
       0.21619922 0.02095266 -0.012109188 -0.117687374
000240 a3 9c 1d be 40 ad 90 3d e1 8b 73 3d 0e 35 6b 3d
       -0.15391783 0.07064295 0.05945957 0.057423644
000250 a7 3e 16 be 4a 8f 9c 3e 4a b3 36 3e 8e ff 2e be
       -0.14672337 0.3057807 0.17841831 -0.17089674
000260 f2 5e 0f 3d ae 74 60 3e e1 d4 a6 3e dc 57 84 3e
       0.035002656 0.2191951 0.3258429 0.2584828
000270 94 2b 3a be 5d 5c 96 bd c4 fd 37 3e 1d 82 27 3e
       -0.18180686 -0.07341836 0.17967898 0.16358228
000280 f6 9b 2c be d8 87 39 3e 20 8e 62 3d 12 c2 1b 3d
       -0.1685637 0.18118227 0.055311322 0.038026877
000290 34 27 3a be 02 1e f9 bc 80 14 98 3e 85 a2 6d 3e
       -0.18179017 -0.030409817 0.2970314 0.23206528
0002a0 3c 59 73 be ef aa ea bd 8f 52 84 3d 6d 1d 5e bd
       -0.23764509 -0.11458384 0.06461059 -0.05422728
0002b0 10 d5 84 be 02 68 d4 bd 75 7d 86 bc 54 b0 26 bd
       -0.25943804 -0.103714004 -0.016417244 -0.040695503
0002c0 36 f2 4c be 73 11 39 3e 59 9a 6a be d7 e1 96 3e
       -0.20014271 0.18073063 -0.22910441 0.29469177
0002d0 be d8 53 3d 0d 17 62 3e 48 f9 40 bd 0c 6f 44 3d
       0.051720373 0.22079106 -0.047112733 0.047957465
0002e0 f8 97 96 3e 35 6e 69 be f6 f1 3f be ab 6e a5 bb
       0.29412818 -0.22795947 -0.18744645 -0.005048593
0002f0 03 28 8a be 45 34 04 be b1 06 9e 3e 4a 39 c9 3d
       -0.26983652 -0.12910564 0.3086448 0.0982538
000300 c4 f3 63 3e 1c bd 49 3e f3 c3 7a 3e 50 43 78 3e
       0.22260958 0.19701046 0.24488811 0.24244428
000310 fe 9f 5e 3d 6a 49 4e bd 40 0c 63 be 34 ea 6c 3e
       0.0543518 -0.05036298 -0.22172642 0.23136216
000320 c6 74 f6 3d ea e8 63 be 69 b5 9f 3d 7d d9 9b 3e
       0.120339915 -0.22256818 0.07798273 0.30439368
000330 3b a9 d6 bd 28 1c 8d be dc d2 77 be 80 e1 49 be
       -0.10481497 -0.27560544 -0.2420153 -0.19714928
000340 5c 48 7c 3d 5b ae 86 be b1 11 a2 3d f8 66 9a 3e
       0.061592445 -0.26304898 0.079135306 0.30156684
000350 5d f2 16 3e 37 7c 01 3e fb 2f 03 3e 82 55 ec 3d
       0.14740892 0.1264504 0.12811272 0.11539747
000360 88 6c 2f 3e 89 7f f5 3d 3d e6 ae bd c7 ae a1 bd
       0.17131245 0.11987216 -0.08540008 -0.07894664
000370 52 97 db bd a6 dc 15 be ca 00 9d be d9 c1 d3 bd
       -0.107222214 -0.14634952 -0.30664665 -0.10339708
000380 6c e7 69 be 78 da 50 3d 24 19 9e be ca 8b 95 3e
       -0.22842187 0.050989598 -0.30878556 0.29208213
000390 a9 06 98 3e c9 69 3d be 21 cf 33 3e 09 7a cd bd
       0.2969258 -0.18497385 0.17559482 -0.10033042
0003a0 aa 04 46 be 36 c9 57 be a2 fd 24 be e6 86 ec 3d
       -0.19337717 -0.2107285 -0.16112378 0.11549167
0003b0 80 61 8d be 09 1a 84 3e 86 1e 61 bd 02 c7 94 be
       -0.2761345 0.25801113 -0.05496075 -0.2905808
0003c0 07 2a 57 3e de c9 c5 bb c5 bb 5c 3e 99 d5 79 3e
       0.21012126 -0.0060360273 0.21556003 0.24397887
0003d0 f9 6d 30 3e 85 ab b4 bd f5 95 f4 bd 28 86 86 3e
       0.17229451 -0.08821777 -0.119426645 0.26274228
0003e0 db 3b 7d bd 54 3d 31 be 22 51 91 3e 7d c6 9b be
       -0.06182466 -0.17308551 0.28382212 -0.30424872
0003f0 55 c3 e5 bd 5f d7 e4 3d 84 aa 90 3e 78 d8 04 3a
       -0.11218897 0.11173891 0.28255093 0.0005067657

fc1.bias f4 [32]
000000 8a ee 65 be bf 4c f5 bd 39 4e 85 bd 4d cc 21 3e
       -0.22454277 -0.11977529 -0.065090604 0.15800591
000010 ed 75 68 be be 77 f0 bd 02 e7 86 be 47 57 bf bd
       -0.22701235 -0.11741589 -0.2634812 -0.09342819
000020 33 a8 f8 bc df 80 84 bd 26 a1 9b bd 27 fc 30 bb
       -0.030353641 -0.06469893 -0.07599096 -0.0027005763
000030 51 c2 28 3e 54 6c 23 3d e3 f8 94 3e cd 8c 4c 3e
       0.16480376 0.03989823 0.29096135 0.19975586
000040 27 7c 27 be c0 41 ea 3d f0 ad 70 3e c5 7c 2b be
       -0.16355954 0.11438322 0.23503852 -0.16746815
000050 f6 3b 9d be 17 95 12 3e d3 32 46 3e f9 63 22 3e
       -0.3070981 0.14314686 0.19355325 0.15858449
000060 c6 72 8d 3e 58 d0 1b bb 1b 03 23 bd b5 9e 5c 3e
       0.27626628 -0.0023775306 -0.039797883 0.21544917
000070 51 f9 5e be 25 3a 9b bd 59 98 93 3d 7d 14 87 bd
       -0.21774794 -0.075794496 0.072067924 -0.06595705

fc2.weight f4 [3, 32]
000000 d7 5d 8b bc b7 9a 19 be cf 83 b1 3d 4f e5 06 be
       -0.01701252 -0.15000425 0.086677186 -0.13173412
000010 76 26 0d bd 90 53 a9 bd 6b 29 13 3e 7f e9 9f 3d
       -0.034460507 -0.082678914 0.14371268 0.07808208
000020 e9 8f 22 3e a8 8f b0 bd fb 1e fa bc 21 83 85 3d
       0.1587521 -0.0862115 -0.03053235 0.065191515
000030 41 3a 54 bd 7f 0b 1a be c1 8d 3e 3d 87 96 bd bd
       -0.051813368 -0.15043448 0.046521906 -0.092572264
000040 59 e5 a7 bd 2d cc b3 bd e2 f1 07 be 7d 18 09 be
       -0.081980415 -0.08779178 -0.13275865 -0.13388248
000050 10 88 d9 3b 38 6e 0f 3c 7e 19 ae bd fd 31 d6 bd
       0.0066385344 0.008754306 -0.08500956 -0.10458753
000060 a8 75 1a bd d5 35 71 3d 2d 68 d4 bd a7 61 35 3e
       -0.037709862 0.05888923 -0.103714325 0.17713033
000070 a8 c3 c4 bd fd 50 e0 3c c3 a0 45 be 73 30 1e 3d
       -0.09607631 0.027382368 -0.19299607 0.038620424
000080 98 30 21 3d 78 59 16 be 9f 06 fc bd 64 39 ad 3d
       0.039352983 -0.14682567 -0.123059504 0.08458212
000090 07 8f 64 bd 32 36 bf bd f0 ed 2a 3b b8 61 1f 3e
       -0.055800464 -0.09336509 0.0026081763 0.1556462
0000a0 a8 21 0a bd 31 35 98 bd c4 c1 4e 3d 12 8a 51 3c
       -0.033723503 -0.074320205 0.050477758 0.012789266
0000b0 37 23 4f bb 39 0e df 3d 99 1b 36 bd ba da c0 3d
       -0.0031606683 0.10891385 -0.044459913 0.09416719
0000c0 aa e0 8b bd 22 46 e8 bd af 03 a4 bd 5b 38 d2 3d
       -0.06829961 -0.11341502 -0.08008515 0.10264655
0000d0 06 22 9e bd 20 20 27 3e d3 a9 b1 bd e4 4a 11 bd
       -0.07721333 0.16320848 -0.086749695 -0.035471812
0000e0 96 c4 8b 3d 9e 8b b3 bd fd 30 c2 3d 76 99 01 3e
       0.06824605 -0.08766864 0.09482 0.12656197
0000f0 15 f4 ad bd 33 a7 7b 3c d4 f1 5f bd cc ce 72 bd
       -0.084938206 0.015359688 -0.054673985 -0.059279248
000100 93 a6 69 3d 9f 37 0e 3e 44 54 b0 bd 9f bc d7 bd
       0.057043623 0.13888405 -0.086098224 -0.105340235
000110 27 79 fd 3d a6 d7 1b be cf 47 f0 3d e3 88 2f be
       0.123766236 -0.15218982 0.117324464 -0.17142062
000120 0b 99 14 3e 10 a9 ae bb e2 71 ff bc 61 28 49 be
       0.14511506 -0.0053302124 -0.031182233 -0.1964431
000130 25 c3 6b 3d fe c8 04 3e 9d 9a f6 3c 9d dd c9 bd
       0.05755915 0.12967297 0.030103022 -0.098567225
000140 bb a9 d8 3d 9a 37 6e 3d c3 f4 5b 3d 72 2f 1a be
       0.105792485 0.058158495 0.05370022 -0.15057161
000150 b1 83 0c 3e fc 46 04 3e 8f 23 8e 3d a0 a0 d8 bd
       0.13722111 0.12917703 0.06940376 -0.10577512
000160 56 89 e0 3d ca 13 c2 3d 0c 31 ea bd de 56 0a 3d
       0.10963695 0.09476431 -0.11435136 0.03377425
000170 ab e9 0d 3e cd e2 b0 3c e9 4a 00 3e 7c ac b3 3c
       0.13858669 0.021592522 0.12528576 0.021932833

fc2.bias f4 [3]
000000 6d 81 fe 3c 16 1c e6 bd 26 2d 33 be
       0.031067574 -0.11235826 -0.17497692
